JuanRBM/results/run-2017-08-15T07-14-50/parameters.npz_800.npz (npz, 896 bytes, 3 tensors)

hidden_bias f4 [8, 1]
0	0x3f5036aa	0.8133341
1	0x3fe88b81	1.8167573
2	0x3f9256f0	1.1432781
3	0x3df0ec53	0.11763825
4	0x3f3f7d2d	0.7480038
5	0x3f1a1396	0.60186136
6	0xbf87c310	-1.0606403
7	0x3ea59f58	0.32348132

weights f4 [4, 8]
0	0xc098600c	-4.7617245
1	0x3dd0e473	0.10199823
2	0xc0ed452e	-7.414695
3	0x4078ad6e	3.8855853
4	0x3faecb47	1.3655785
5	0xc00d9bc1	-2.2126315
6	0x40c18a95	6.0481668
7	0xc043d5d1	-3.0599253
8	0x40558fcd	3.336902
9	0x4021504f	2.5205266
10	0xc11347d5	-9.205037
11	0xc0a04613	-5.008554
12	0x3ff71a8b	1.9304975
13	0x401f726b	2.4913585
14	0xc0cd14ae	-6.4087744
15	0x3ff579e6	1.9177825
16	0x40683dee	3.62878
17	0xc0ffeff3	-7.9980407
18	0x40ad4ea5	5.41585
19	0x400bfd40	2.1873322
20	0xbdfbc6cc	-0.12293777
21	0xc0992565	-4.785815
22	0xc09acf48	-4.837803
23	0x3fd24344	1.6426778
24	0xc0d854bb	-6.760343
25	0x4088da2f	4.2766337
26	0x40bab1b6	5.834193
27	0xc046eb35	-3.108106
28	0xc099c7f0	-4.8056564
29	0x3fbc20c4	1.4697499
30	0xc09ac7db	-4.8368964
31	0xc060d2ca	-3.5128655

visible_bias f4 [4, 1]
0	0xbf88f4d2	-1.0699713
1	0xc05d21b3	-3.4551818
2	0xc03f3471	-2.9875758
3	0xc0250241	-2.5782626
